…
  bleu_valid_batch_size: 5
  bleu_valid_warmup: 1
  bleu_valid_configs:
    max_steps: 150
    beam_size: 4
    sacrebleu_args: --tokenize none -lc
    postprocess: False
    alpha: 0.0
  num_kept_checkpoints: 10
  num_kept_best_model: 1
  disp_freq: 100
  save_freq: 1000
  loss_valid_freq: 1000
  bleu_valid_freq: 1000
  early_stop_patience: 20
2019-10-18 12:23:51,699 - INFO - Loading data...
2019-10-18 12:23:53,828 - INFO - Done. Elapsed time 0:02
2019-10-18 12:23:53,829 - INFO - Building model...
2019-10-18 12:24:02,163 - INFO - Middle(
  (encoder): Encoder(
    (embeddings): Embeddings(
      (embeddings): Embedding(37853, 512, padding_idx=0)
    )
    (gru): RNN(
      (rnn): GRU(512, 512, batch_first=True, bidirectional=True)
    )
  )
  (decoder): Decoder(
    (middle_linear): Linear(in_features=1024, out_features=512, bias=True)
    (embeddings): Embeddings(
      (dropout): Dropout(p=0.1)
      (embeddings): Embedding(29535, 512, padding_idx=0)
    )
    (enc_attn): GeneralAttention(
      (W): Linear(in_features=1024, out_features=512, bias=True)
      (sm): Softmax()
      (out): Linear(in_features=1024, out_features=512, bias=True)
    )
    (dec_attn): GeneralAttention(
      (W): Linear(in_features=512, out_features=512, bias=True)
      (sm): Softmax()
      (out): Linear(in_features=512, out_features=512, bias=True)
    )
    (out_attn): GeneralAttention(
      (W): Linear(in_features=512, out_features=512, bias=True)
      (sm): Softmax()
      (out): Linear(in_features=512, out_features=512, bias=True)
    )
    (rnn_input): Linear(in_features=2048, out_features=512, bias=True)
    (rnn_right): GRU(512, 512, batch_first=True, dropout=0.1)
    (rnn_left): GRU(512, 512, batch_first=True, dropout=0.1)
    (out): Linear(in_features=512, out_features=512, bias=True)
    (generator): Generator(
      (proj): Linear(in_features=512, out_features=29535, bias=False)
    )
    (linear_bridge): Linear(in_features=1024, out_features=512, bias=True)
  )
)
2019-10-18 12:24:02,166 - INFO - Total parameters: 45267968
2019-10-18 12:24:02,166 - INFO - Total parameters (excluding word embeddings): 10765312
2019-10-18 12:24:02,168 - INFO - NMTCriterion(
  (criterion): NLLLoss()
)
2019-10-18 12:24:02,169 - INFO - Done. Elapsed time 0:08
2019-10-18 12:24:10,974 - INFO - Building Optimizer...
2019-10-18 12:24:10,975 - INFO - Done. Elapsed time 0:17
…
